…
Image Dimension: 200 (using default)
Number of Training Images: 240 (using default)
Number of Valiation Images: 60 (using default)
Batch Size: 50 (using default)
Epochs: 50 (using default)
Benchmark Run: False

Trains-Dataset Specs: (TensorSpec(shape=(None, 200, 200, 3), dtype=tf.float32, name=None), TensorSpec(shape=(None, 4), dtype=tf.float32, name=None))
Model: "sequential"
_________________________________________________________________
 Layer (type)                Output Shape              Param #   
=================================================================
 conv2d (Conv2D)             (None, 198, 198, 32)      896       
                                                                 
 conv2d_1 (Conv2D)           (None, 196, 196, 30)      8670      
                                                                 
 max_pooling2d (MaxPooling2  (None, 98, 98, 30)        0         
 D)                                                              
                                                                 
 conv2d_2 (Conv2D)           (None, 96, 96, 30)        8130      
                                                                 
 max_pooling2d_1 (MaxPoolin  (None, 48, 48, 30)        0         
 g2D)                                                            
                                                                 
 conv2d_3 (Conv2D)           (None, 46, 46, 30)        8130      
                                                                 
 flatten (Flatten)           (None, 63480)             0         
                                                                 
 dense (Dense)               (None, 20)                1269620   
                                                                 
 dense_1 (Dense)             (None, 15)                315       
                                                                 
 dense_2 (Dense)             (None, 4)                 64        
                                                                 
=================================================================
Total params: 1295825 (4.94 MB)
Trainable params: 1295825 (4.94 MB)
Non-trainable params: 0 (0.00 Byte)
_________________________________________________________________
Train_dataset Specs: (TensorSpec(shape=(None, 200, 200, 3), dtype=tf.float32, name=None), TensorSpec(shape=(None, 4), dtype=tf.float32, name=None))
…
